sudoku_model.tflite (tflite, 883736 bytes, 20 tensors)

sequential_1/batch_normalization_3/FusedBatchNormV3 f4 [64]
00000000: ad9b 9fbd 404b 47be 6f11 d2be e8fb 38bf
00000010: ee7b 1dbf 1a50 f4bd bc8b b4be 9cec 66bc
00000020: ae69 e1bd a87d 1abe 12be edbd 8447 30be
00000030: 7dc6 98bd 6168 0cbe 78ae 1ebd c2b0 7abe
00000040: f435 cbbe 4ace 07be d3f3 90be 7307 bcbd
00000050: 6c96 23be 8527 0dbe 4260 17be 0783 42bf
00000060: 0aa5 e1bd 009b acbe 7de1 2dbe b698 d7bd
00000070: 688b 6abd acc4 8abe 4558 6ebd fc02 26bf
00000080: 7117 15be c47a 59bf bffe 24be acc2 c5bd
00000090: 9a33 21bf f4de 05be 4bf9 f7bd 7a10 e7be
000000a0: 3a7d 91be f053 82be 6004 b6be 9af4 6fbe
000000b0: 88c7 71be 523c 05be 76dc b8bf d9d3 dcbd
000000c0: 262d 44bf 5a27 90be 5ac6 84bd 4390 23be
000000d0: 4a2e 62bd 1559 46be 2ece 3ebd 42a9 21be
000000e0: aa1d a0be b87a 0bbe 6eb3 39bf e4ad c1bd
000000f0: a2a6 a3be 4627 03bf edc1 b7be 739d 27be
-0.07793365 -0.194623 -0.41028926 -0.7225938 -0.61517227 -0.11929341 -0.3526286 -0.014094498
-0.11006485 -0.15086997 -0.11608519 -0.17214781 -0.07459734 -0.13711692 -0.038740605 -0.2448149
-0.396896 -0.13262287 -0.28311023 -0.09181108 -0.1597535 -0.13784607 -0.14782813 -0.7598118
-0.11017807 -0.33712006 -0.16980548 -0.10527174 -0.057261854 -0.27103174 -0.05818965 -0.64848304
-0.14559723 -0.8495295 -0.16112803 -0.09656271 -0.6296936 -0.13073331 -0.12108096 -0.45129758
-0.28415853 -0.25454664 -0.35550213 -0.23433152 -0.23611271 -0.13011292 -1.4442279 -0.10782594
-0.7663139 -0.28155023 -0.06483145 -0.15973 -0.055219926 -0.1936992 -0.046583347 -0.15787223
-0.31272632 -0.13621032 -0.7253941 -0.09456995 -0.31963068 -0.512318 -0.3589014 -0.16368656

sequential_1/batch_normalization_3/FusedBatchNormV31 f4 [64]
00000000: b707 d43e 4e75 f83f 3889 603f c6a3 853e
00000010: 7d7c 803f e1ee c63f 69c8 833f 6ffd 3340
00000020: 426a 0b40 0abb 533f af10 853f 926c 983f
00000030: 01a6 7d3f ac20 5a3f 16b7 0340 fc01 6e3f
00000040: 5b96 0c3f 2e53 e13f 527d ad3f 5aec 6e3f
00000050: a252 563f 2922 a33f fd0f 0f3f 349a 853f
00000060: 7430 a63f 3e90 ae3f 7216 da3e aa85 ca3f
00000070: c9a0 6d3f aa66 6b3f ae1f 933f 12f8 2f3f
00000080: 90f8 bf3f 67fd 063f bb7e c33f 8bb3 873f
00000090: 2c69 6c3f 7b11 1240 959c 1940 8f82 903f
000000a0: 12e3 8b3f b025 bf3f fd42 b83f 4e8d 243f
000000b0: 3a5b 1f3f 973a 1340 f8c9 1b3f 51f8 723f
000000c0: cb48 803f 81af fd3f f9b3 b03f 2cff 833f
000000d0: c222 853f 0e88 b73f eff6 1f3f e78e b83f
000000e0: 0cba c63f b533 013f 1894 6a3f 26ad 1d3f
000000f0: a987 3b3f 1dee fb3f dcf4 7d3f 7b0f af3f
0.41412136 1.9410799 0.8770938 0.26101512 1.0037991 1.554165 1.0295535 2.8123434
2.1783605 0.82707274 1.0395716 1.1908133 0.99081427 0.85206103 2.0580497 0.9297178
0.54916924 1.760351 1.355387 0.93329394 0.8371984 1.27448 0.5588377 1.0437684
1.2983537 1.3637769 0.4259525 1.5822041 0.92823464 0.9195353 1.1494043 0.687379
1.499773 0.5273041 1.527305 1.0601667 0.9234798 2.282317 2.400182 1.1289843
1.0928671 1.4933376 1.4395443 0.64278114 0.62248576 2.300451 0.60855055 0.9491015
1.0022215 1.9819185 1.3804923 1.0312247 1.0401232 1.4338396 0.62486166 1.441861
1.5525527 0.50469524 0.91632223 0.6159233 0.73253876 1.9682041 0.9920175 1.3676599

sequential_1/batch_normalization_2/FusedBatchNormV3 f4 [64]
00000000: ae4f f5be 7a3b 57be 3004 3f3e 1200 92be
00000010: 1e69 cfbe f2b8 b6bd 480f 033e fc44 fcbe
00000020: 60f2 7cbd cccc b73d c090 283c b0db d63c
00000030: 187e 273d 9bee 66be b0f4 babc c179 26be
00000040: 6deb 8ebe 80a7 0fbe 6bf2 18be b8bf 013d
00000050: 78d4 a3bd 9393 cfbe 289c 77be 63ab aebe
00000060: 98ad ddbd a2c5 69be 5838 c53c b009 3dbd
00000070: b0f7 e4be db39 463e f369 72be 50ce 083e
00000080: c019 983d 002e 66bc 0076 adbb d7ba d3be
00000090: d2bf ecbe 0b09 19be 2c87 bebe 6e32 1ebe
000000a0: e0c2 87bc 0003 07be d4e1 97bd 2776 1fbe
000000b0: 30ad 52bd 5aa7 9cbe a0ba 1b3c 08d8 b53d
000000c0: 304f 153d bc21 b7bd 8431 65be d53f 3bbe
000000d0: 40eb 7abd 4021 333c 9b81 84be 06c7 42be
000000e0: b0b0 c33c e03e b7be f28f 82be 6087 c4be
000000f0: 1811 8e3d 1a75 fe3d d08c 62bd 10a9 ed3c
-0.47912353 -0.21018782 0.18653941 -0.2851568 -0.40509886 -0.08921994 0.12798798 -0.4927138
-0.061754584 0.08974609 0.010288417 0.026227802 0.040891737 -0.22551958 -0.022821754 -0.16257383
-0.2791399 -0.1402874 -0.14936225 0.031676978 -0.079995096 -0.40542278 -0.24180663 -0.34115133
-0.10824126 -0.22829297 0.024074718 -0.046151817 -0.4472022 0.19358008 -0.23673229 0.13359952
0.074267864 -0.014049053 -0.0052936077 -0.41353485 -0.46240097 -0.14944856 -0.37212503 -0.15448925
-0.016572416 -0.13184738 -0.0741612 -0.15572415 -0.051434696 -0.3059643 0.009504944 0.08879095
0.036452472 -0.08941981 -0.2238217 -0.18286069 -0.061259508 0.01093322 -0.2588013 -0.19021234
0.023887962 -0.35790157 -0.25500447 -0.38384533 0.06936854 0.12424679 -0.05531007 0.02901128

sequential_1/batch_normalization_2/FusedBatchNormV31 f4 [64]
00000000: 28f8 893f 69f4 183f 0611 9b3e 5e6c 1b3f
00000010: b74f de3e 0cfc 143f c8a2 a53e d231 a03e
00000020: 7b82 ad3e c627 1f3f 1e0d eb3e ffe9 103f
00000030: 866e 923e 67b8 e43e 6f62 c33e 8368 e63e
00000040: 423f 083f f9b2 b13e 912d bc3e eeb2 ee3e
00000050: 98ed 003f 1d00 263e 2b15 c93e e0ef 233f
00000060: 8fb1 d63e 5be7 f33e fdb8 ae3e e9c6 bc3e
00000070: d347 073f 3977 053f c3e6 df3e 3333 eb3e
00000080: 4242 913e a5ba 293f 4f9d 193f 787d 4e3f
00000090: 4130 e03e add4 853e 7c26 de3e 0b06 2f3f
000000a0: 2e65 023f e42b 0a3f a87f c63e 6fec 143f
000000b0: 8ed0 f23e b05d 033f 0541 a93e 08f0 cb3e
000000c0: e4c4 d23e bf01 033f 5f08 fc3e 767a 633e
000000d0: c70e ea3e b31e 113f 04f8 a03e f303 0f3f
000000e0: 0319 833e 1512 ec3e 7d49 f63e a54c 2d3e
000000f0: 9156 ca3e 68fa d23e aca0 ab3e 0531 d73e
1.0778856 0.5974794 0.30286425 0.6071223 0.43420193 0.58197093 0.32350755 0.3128801
0.3388861 0.62170064 0.45908445 0.5660705 0.28599948 0.44671938 0.38161036 0.4500161
0.53221524 0.34706858 0.36753514 0.46620888 0.5036254 0.1621098 0.39273962 0.64037895
0.4193234 0.47637448 0.3412551 0.36870506 0.5284397 0.52135044 0.43730745 0.459375
0.28370863 0.6630042 0.6000566 0.806602 0.43786815 0.2613882 0.43388736 0.68368596
0.5093564 0.5397322 0.3876927 0.5817327 0.4742474 0.5131483 0.33057418 0.39831567
0.4116584 0.5117454 0.49225137 0.22214684 0.457144 0.5668747 0.3143922 0.558654
0.2560502 0.46107545 0.48102942 0.16923769 0.3951917 0.4120667 0.3352102 0.42029586

sequential_1/batch_normalization_1/FusedBatchNormV3 f4 [32]
00000000: 96c1 01bf a2a5 7bbe 03a3 3abe 7507 42bf
00000010: 5ac5 8abf 55a4 66bf 3c96 51bf 6a3f 68be
00000020: a525 19be b6e3 3abf b563 99bf 9457 a8bd
00000030: 1ac2 8dbe 6019 e7be 7efb cfbd 2d94 05bf
00000040: 3442 b9be fcdd fcbe ca6f 27be 562b 66bf
00000050: a31d 08bf 4d3c 4fbe e109 1abf 122d 68bf
00000060: 1f94 28bf c3f4 62bf 090b 9abe 3615 e8bd
00000070: 352e acbe 90c2 16bf 94c4 75be 164b 42bd
-0.50686014 -0.24574903 -0.18226247 -0.7579263 -1.0841477 -0.900945 -0.81869864 -0.2268044
-0.14955766 -0.7300371 -1.1983553 -0.08219829 -0.2768715 -0.45136547 -0.1015539 -0.52179223
-0.3618332 -0.4938811 -0.16351238 -0.89909875 -0.5317022 -0.20237847 -0.60171324 -0.9069377
-0.65851015 -0.88654727 -0.30086544 -0.11332171 -0.33629003 -0.5889063 -0.2400077 -0.04743489

sequential_1/batch_normalization_1/FusedBatchNormV31 f4 [32]
00000000: 02be bb3e ee76 903f 0e11 b03f b4d3 6c3f
00000010: dd61 723f 2c7b 543f aed3 493f de83 363f
00000020: ca26 bb3e 3102 0f3f cb24 3d3f b360 fb3f
00000030: 00a1 0d3f c778 a23f 4c83 983f 3800 5d3f
00000040: eaff 673f 2c54 e23e c1e7 543f 4e8b 1d3f
00000050: 1541 0b3f 1b1b 1c40 b774 053f 3ec7 4b3f
00000060: 8fd3 6a3f 253a 1d3f 5531 273f 54ef 3e3f
00000070: f3fe 963e e6af 0d3f 6987 eb3f 3bab a43f
0.36668402 1.1286294 1.3755205 0.92510533 0.9468058 0.83000445 0.7883862 0.71294963
0.3655303 0.5586272 0.73884267 1.9638885 0.5532379 1.2693108 1.1915069 0.8632846
0.9062487 0.44204843 0.8316613 0.6154069 0.5439618 2.4391544 0.5213122 0.79600894
0.9172906 0.61416847 0.6530965 0.74583936 0.29491386 0.55346525 1.8400699 1.2864755

sequential_1/batch_normalization/FusedBatchNormV3 f4 [32]
00000000: f0cd 033e a386 54bf 91e8 89be dc28 61be
00000010: 7744 82be e3d2 8a3e 2626 51bf 02ee 95bd
00000020: 4c03 18be 6d5c 63be 57c1 12be d816 a6be
00000030: 5023 fcbe 710d 73bf 9262 71be 1709 aabe
00000040: 0fb6 1fbf bcdd 87be 85f8 11bf b98f 2ebd
00000050: ae04 f2bb e247 9b3d 0acd 7abf 949a 12bf
00000060: 304b 19be c4a5 c43d 2861 01bf 16ba d7bd
00000070: 3fe3 25bf 4165 29bf 088b f8bc 7293 81be
0.12871528 -0.8301794 -0.26935247 -0.21988243 -0.2544286 0.2711402 -0.81698835 -0.07320787
-0.14845008 -0.22203226 -0.14331566 -0.32439303 -0.4924569 -0.94942385 -0.23572758 -0.3321006
-0.62387174 -0.26536357 -0.57019836 -0.042617533 -0.007385812 0.0758207 -0.97969115 -0.5726712
-0.14970088 0.0960193 -0.50538874 -0.1053354 -0.64799875 -0.66170126 -0.030339733 -0.25307804

sequential_1/batch_normalization/FusedBatchNormV31 f4 [32]
00000000: a540 f341 da42 6541 bdc6 8e41 612f 9d40
00000010: ec3b d641 4965 f741 1374 a241 f4d4 6141
00000020: c0e9 8841 9623 5741 b094 8941 6445 9e41
00000030: 4306 d241 f957 d241 9cab 9041 0e8a bf41
00000040: 9283 5541 1f6b 2d41 6b60 3641 861e a041
00000050: d392 b341 4115 f941 72f0 4941 fb5e 9641
00000060: d9dc ba41 2684 b241 3d32 9841 73d7 c841
00000070: 2e9f 3841 bbba d540 bfd7 dd41 4fe7 aa41
30.406565 14.328821 17.84704 4.9120336 26.779259 30.924456 20.306677 14.1144905
17.114136 13.446188 17.197601 19.783882 26.253057 26.292955 18.083794 23.94241
13.344622 10.838653 11.39854 20.014904 22.446692 31.135378 12.621202 18.796377
23.357836 22.314526 19.02453 25.1052 11.538862 6.6790442 27.730345 21.362944

sequential_1/dense/BiasAdd/ReadVariableOp f4 [256]
00000000: 5581 413e 2f32 193e 6b3e 3bbe 0ab2 4f3e
00000010: d126 3d3e b1e7 633d 9a8b b33e c6dd 363e
00000020: f3fd e83d e76f 843e 8b2e bd3d 9721 ad3e
00000030: 625b e83c 318e c73d 6ac1 38bd 48a6 8a3e
00000040: 6766 13bd 57f3 cf3c 9307 213e 01ff 59bd
00000050: 4e18 a63e 36b1 9f3d f9a2 413d c2b7 1a3e
00000060: c60c e03b 1c02 1f3e e936 b73e a37d 523e
00000070: d2e3 b53e 5114 4d3e 0e73 0dbd db8f 573e
00000080: 3d86 ffbc ee26 2b3e 8fb1 893c 75f5 303e
00000090: 646a 1d3e 6787 e83d 3f7c 84bd d802 7b3d
000000a0: d021 7e3e decd a03e fe8d 6c3e bec0 d73d
000000b0: d925 993e 58d5 d53d 3f7d 003f 9f85 2bbe
000000c0: ce45 153e 67c4 76bd ffce 763e ec34 813e
000000d0: f0cf aebd 75e0 b43a 00e8 863d d64b ffbc
000000e0: e54f e83d f8ba ef3e 3c99 e93d bf67 313e
000000f0: 385c 343e 97b8 073e 35d7 213e 8cec c13d
00000100: e2c8 593e f56a 9a3d 15b5 3d3e 5976 5c3e
00000110: f24d 753e b7ca 53be f0ea 7a3e eaf4 ab3d
00000120: 4e3a 123e ed28 983d 3176 02be 1d9b 753e
00000130: 1b11 b13d f1eb b6bd 1d5c f33d 1f9c 303e
00000140: 77a6 0ebd ba6a e33d e930 473e f2d0 12be
00000150: 97ad a93e 5ded f03e e899 c43c 204c 003e
00000160: 9bae d2bd a29a f43d 1b8e 1a3e 026e bf3e
00000170: 52ca 233d b473 443e 4f65 363e 3203 153e
00000180: 55d4 af3e 5dc5 a5bd 01ed 8a3e 1d9c b63e
00000190: bd19 743d b96d f8bc c754 e43d cd95 6d3e
000001a0: f44f 193e dd25 9d3c 177e 4f3e 0ba9 ef3a
000001b0: 3818 263e 5815 863e d882 b23d 9fb6 173d
000001c0: b261 7a3e a347 af3d fc00 993c 89b8 0fbd
000001d0: 75f2 5f3e 6092 333c 0a9d 9c3e 3334 633e
000001e0: fc8f 8bbd ca30 a5bd 7ebd 1abd c3d7 403e
000001f0: a5b2 893d e48c cebd 78ff 3fbe aee4 113f
00000200: 51f6 563d c37c b03d dfa7 2d3e 878a 263c
00000210: 1a6e 123e 31f1 d9bd 9d5d c43d b941 9e3e
00000220: 7410 4c3d ecca 99bc c4cd 853e 9f18 863e
00000230: 2bea 8c3c b11e 16bd 8ed5 bf3d a27b 3a3e
00000240: 60fa 1d3e bee3 70be 9c3e 573e 9c0b c43e
00000250: b20b 3d3e a70e 033c 1f83 f83d e6fc 8f3e
00000260: 1ece a23e c0fa 7c3e 0c53 3b3e 9bab b13d
00000270: e1ef cb3e f617 9a3e 4743 153e 2c33 0f3e
00000280: ad21 01bd 0a7d ad3e 456f 36be c0ca 1bbd
00000290: 9ed4 803d f93f 943e d5c8 833d 42c7 5ebd
000002a0: 02cd 42bd 7d0f 643e 280d 92bd 5e0b 823e
000002b0: 88ef 9b3e bce0 0b3e d462 ca3c 1d3f 2c3e
000002c0: 41d2 803d 2e82 383c 6af9 a83d db84 7d3e
000002d0: 3486 013d a227 b33b 5696 b93d 1ac2 33bd
000002e0: 864c 953b bfce f53d a7e5 c43d ef73 003d
000002f0: a728 763e fef8 9b3d 5050 103e 6f09 683e
00000300: bca9 163e 5f52 d3bb 89cb 07bd ec87 aa3d
00000310: eda7 4b3e e68d 503e 3600 153e 26a2 133e
00000320: c94e 7fbe 8c23 2abd 8936 023e a55c 033e
00000330: f201 b53d de05 dd3d 55de e83e ee22 ee3d
00000340: 68ce 6d3c 3e95 df3d e495 6e3d a118 58bd
00000350: 6089 b93e 801c 693d 4cc7 be3e dbc1 473d
00000360: fe1f fa3d 27ea 293d ec0a 1fbd c967 123d
00000370: c707 1fbd 20b8 b83d 7cf4 853e ee68 8f3e
00000380: 3147 863e 61a3 7f3e e887 413e b906 5fbd
00000390: fe2b c03d e4c7 9b3e f3ec f1bd 538b 853e
000003a0: 9b3c 823e 221d 4f3d f221 8a3e 339c a93c
000003b0: 7736 bd3b 27de 7c3e b88b a63e 2ce6 7abd
000003c0: 4f0f ce3d bc3a 253e c3f6 eb3d 17f0 503e
000003d0: a4b2 be3d dfd3 463e 3fbf 023e 4edb 46bd
000003e0: 0fc9 bf3e ca99 693e 3978 19be 24c3 0fbe
000003f0: e4c9 e9bd 991f 7bbd 6797 1c3d 95f3 983e
0.18896993 0.1496055 -0.1828553 0.2028276 0.18471839 0.05564088 0.35067445 0.17858037
0.11376562 0.25866625 0.09237393 0.3381469 0.028363887 0.09743918 -0.04510633 0.27079988
-0.03598633 0.025384588 0.15725546 -0.053221706 0.32440418 0.07797472 0.047274563 0.1510916
0.00683746 0.15528148 0.3578408 0.20555739 0.35525376 0.20027281 -0.034533553 0.2105097
-0.03119194 0.16714069 0.0168083 0.17281134 0.15372616 0.11353951 -0.064690106 0.06128201
0.24817586 0.31407064 0.2310104 0.105348095 0.29911688 0.10441083 0.5019111 -0.16750191
0.1457741 -0.060245898 0.241024 0.2523569 -0.08535755 0.0013799804 0.06587219 -0.031164091
0.11343364 0.46822333 0.1140618 0.17324732 0.17613304 0.13254009 0.15804751 0.09468946
0.21268037 0.07539932 0.18526109 0.21529521 0.23955515 -0.20682798 0.24503684 0.08396323
0.14280054 0.07429681 -0.12740399 0.23984952 0.08645841 -0.08931721 0.118828036 0.17247055
-0.034826722 0.11104341 0.19452251 -0.14337519 0.3314025 0.47056094 0.02399917 0.1252904
-0.102872096 0.11943556 0.15093271 0.37388617 0.03998787 0.19184762 0.17812084 0.14552
0.34341684 -0.08094285 0.27133945 0.3566598 0.05959486 -0.030325757 0.111489825 0.23201676
0.14971906 0.019183094 0.20262943 0.0018284632 0.16220176 0.2618816 0.08716363 0.037039395
0.2445133 0.085585855 0.018677227 -0.035088096 0.21869834 0.0109601915 0.3058856 0.22187881
-0.06814572 -0.080659464 -0.03777837 0.18832307 0.06723527 -0.100854665 -0.18749797 0.5698956
0.052481 0.086175464 0.16958569 0.010164863 0.14299813 -0.10641707 0.09588168 0.30909517
0.04982038 -0.018773519 0.2613355 0.2619066 0.017201504 -0.036650363 0.09366904 0.18211225
0.15427542 -0.23524377 0.21019977 0.38290107 0.18461493 0.007999099 0.12134384 0.28122634
0.3179788 0.24705029 0.18293399 0.08675309 0.3983145 0.30096406 0.14576446 0.13984364
-0.031526256 0.3388446 -0.17815883 -0.038035154 0.062905535 0.28955057 0.0643479 -0.054389246
-0.047558792 0.22271533 -0.071314156 0.25399297 0.30456185 0.13659948 0.024705328 0.16820951
0.06290103 0.011261506 0.08250697 0.24757712 0.031622127 0.005467371 0.090618774 -0.04388628
0.0045562414 0.12002324 0.09614115 0.031360563 0.24038945 0.07615851 0.14093137 0.22659849
0.14713186 -0.0064490284 -0.03315309 0.08326706 0.19888277 0.2036663 0.14550862 0.14417323
-0.24932398 -0.041537806 0.12716116 0.1282831 0.08838262 0.10792135 0.45482126 0.11627756
0.014514543 0.109171376 0.058248416 -0.052757863 0.3623762 0.056911945 0.37261426 0.04876886
0.12213133 0.04148307 -0.038828775 0.03574351 -0.038825776 0.09019494 0.2616309 0.28009742
0.2622619 0.24964668 0.188995 -0.05444977 0.09383391 0.30425942 -0.118127726 0.26082858
0.25436863 0.050564893 0.26979023 0.020704364 0.005774315 0.2469412 0.32528472 -0.061254665
0.10061514 0.16135687 0.115216754 0.20404087 0.09311417 0.1941676 0.12768267 -0.04854899
0.37458083 0.22812572 -0.14987268 -0.14039284 -0.11415461 -0.06130943 0.038230326 0.29873338

sequential_1/conv2d/Conv2D f4 [32, 3, 3, 1]
00000000: 17aa b5bd 27db 763d 31d8 233e a634 0bbf
00000010: f7db 9bbe 650e 82be db9c f2bd 770a d3bd
00000020: b95c f53d e314 d53d 271e d73d 3085 dd3d
00000030: 78ad 6dbe ef4a edbd 818f 1d3e 0722 3b3c
00000040: 1401 44be acbf 8b3d 8364 50be 91d6 e5bd
00000050: 8319 5a3e b2a5 e7bd 1446 1a3e 309b 2c3e
00000060: 7142 083d 0e26 343e 8919 41be f867 a0bd
00000070: 0b77 943a 7fd2 913e 6533 15be 99bf 963d
00000080: 7ce6 123e 7680 de3d 4a82 4dbc d5bb 55bd
00000090: bc51 5fbe cbd9 d9bd b81a 5c3e 537c a03c
000000a0: d56b 22be 574c 64be 4991 80bc f3c7 533e
000000b0: 972f aabd 9542 3fbb 248a c9bd 6332 a0bd
000000c0: 48cf 3fbe df57 e53d fb1c 33be 8d04 19be
000000d0: 2aa0 f3ba 774d 93bd 85aa 18be faca 4dbe
000000e0: c1de 873d 132c 83be 4970 02bc e6eb 883e
000000f0: 4bba 79be 618c 44be 0c0c 053e ee38 77be
00000100: c701 db3b 0d6d 873d d5db 0abe 5e53 d6bc
00000110: edf6 833e c635 e73d 42c7 ed3d 9e85 e83d
00000120: e316 933a 84e0 403e 98d5 8d3e 4728 04bc
00000130: 8679 303c a070 443e 47af 56bd 6560 1abe
00000140: ddb9 18bd 469f bd3a b1e0 8ebe b863 0bbe
00000150: 2fb4 1b3e 9eab 0c3e 125d 0abe 6fc7 e53d
00000160: adbd dd3d 0a60 353e 7b54 fb3c f4f0 1139
00000170: 621d 823e b89c b23d 9922 493e 892f 1dbc
00000180: 83af 26be b8bb c1bd ade4 93be eb3b e93d
00000190: b661 7ebd 7cdb 39bd 3ddc 45bc 4e38 89be
000001a0: 3cfb a83d dcf8 ffbd 4de6 b7bd 0870 803e
000001b0: 1609 cb3c a4a8 eb3d a689 e13d 0fdc 4ebe
000001c0: f65d 44be 97ec 9bbe e2c0 cd3d d651 373e
000001d0: 4193 563d 2aec 46be acd2 99be 1481 75be
000001e0: f7d4 9dbc 5b2b 183d a413 c8be 1a2e 843e
000001f0: 7f43 013d 6e57 6abe eec4 f43b 4272 debd
00000200: 8488 fcbd 6151 7b3e 3827 05bd 563e 86be
00000210: a023 2e3e c7a2 a83d f5ee 51be d9f0 73bc
00000220: 7d36 dabd 437b 833e dd1b acbd 9dd3 81bc
00000230: 9116 553d a3a8 43be 1bf7 a8be 0c4a 40be
00000240: 0955 183c b4c1 243c 8751 883e 0396 723d
00000250: 98fd fbbd 59f8 1a3e 7e77 64be 1d42 0abe
00000260: 1472 b738 adb7 31bc 9a80 2f3e 5206 ceb7
00000270: 176b e6bd 4ffd 9c3c b863 573e 8e67 90be
00000280: 0dcc e73b 38aa 513e 9d45 513d b36c 293e
00000290: 954d 303c d0ed 3d3e 1628 333e ea9b 46be
000002a0: c658 74bd b252 bcbd 7194 60be 34d3 b7bd
000002b0: 1a14 a1bd 8584 b43d 1d0a 203d c3c1 e13c
000002c0: 21b5 e8ba 94e4 21be 77be 333e 1810 21be
000002d0: 1974 a9bd 1583 3cbe c208 1d3e 887f afbd
000002e0: 08dc 243e f9dd 483c cd7e 72bd 3eb0 d2bd
000002f0: 83e2 b9bd a9e5 21be 7059 92bd f8ed 503d
00000300: b2e6 5a3d 6959 00be 6192 f4bd b710 0dbe
00000310: b494 1fbe 3f17 fcbd 22c2 433e ab1f ea3d
00000320: 8dfd 963b e417 2fbe 542c c23d 33e0 363d
00000330: c98b 8ebe ba6c 3cbd b67f bb3d 3bd3 6e3e
00000340: 4e9e 173e b834 8cbb 072b f9bd c038 023c
00000350: c043 3fbe 5f90 13be d7f9 52be 8ef8 aa3d
00000360: 858b ebbd fc3f 92be 42e4 443d b5e2 183e
00000370: bfe2 f83c 49a6 2c3e 39e4 2b3e f50e 55bd
00000380: 7473 14be 2805 6dbd 3f00 193e 9dcf 4fbd
00000390: 6604 6d3d 75a5 d1bd 3f63 f7bc 003d c13d
000003a0: 9cfc 87bd e9c9 20be b8d9 97bd 407c 69be
000003b0: 6a30 adbe fa5a 1fbe 9dd6 04be 4e8d 163d
000003c0: b9b0 1a3e dbdd 003e 0f9a fc3d 9a9e 09be
000003d0: 104f 6a3e 66b3 923e de39 87be f0df 36be
000003e0: 45b9 de3b 4460 3f3c 751a 16be 612d 8ebc
000003f0: dffa 1fbe 1405 9a3c 1008 f7bc 29b3 4f3e
-0.08870333 0.060267594 0.16000439 -0.5437721 -0.30441257 -0.25401607 -0.11846324 -0.103047304
0.11980576 0.104043745 0.10503798 0.10816419 -0.23210704 -0.11586558 0.15386774 0.011421687
-0.19141036 0.06823668 -0.20350842 -0.11222566 0.21298794 -0.11310901 0.15065795 0.16856074
0.03326649 0.17592642 -0.18857397 -0.078323305 0.0011326981 0.28480908 -0.14570387 0.07360763
0.14345735 0.10864346 -0.01254327 -0.052181084 -0.21808523 -0.10637244 0.21494567 0.019590532
-0.15861447 -0.22294746 -0.015694277 0.20681743 -0.08309858 -0.0029183973 -0.09840801 -0.078221105
-0.18731415 0.11198401 -0.17491524 -0.14943142 -0.0018587161 -0.071925096 -0.14908798 -0.2009696
0.06634284 -0.25619563 -0.007961341 0.26742476 -0.24387471 -0.19194175 0.12992877 -0.2414281
0.0066835615 0.06612597 -0.13560422 -0.0261628 0.25774327 0.11289553 0.11610271 0.113536105
0.0011222031 0.18835646 0.27702022 -0.0080662435 0.010771161 0.19183588 -0.05241325 -0.15075834
-0.037286628 0.0014467023 -0.279058 -0.13612258 0.15205453 0.13737342 -0.13512066 0.112196796
0.108271934 0.17712417 0.030679932 0.0001391804 0.25413042 0.08721298 0.19642104 -0.009593853
-0.1627789 -0.09459633 -0.28885403 0.113883816 -0.062104903 -0.045375332 -0.012076435 -0.2680077
0.08251044 -0.12498638 -0.08979473 0.25085473 0.024784606 0.11506775 0.110125825 -0.20201133
-0.19176468 -0.3045394 0.10046555 0.17902312 0.052386526 -0.19426027 -0.30043542 -0.2397502
-0.019266589 0.037150722 -0.39077485 0.25816423 0.03155851 -0.22884914 0.007469765 -0.10861637
-0.12330726 0.24542762 -0.032508105 -0.26219434 0.17005777 0.08234172 -0.20501311 -0.0148889655
-0.10654924 0.2567998 -0.08403752 -0.015847975 0.052023474 -0.19107299 -0.33001027 -0.18778247
0.009297618 0.010055948 0.266247 0.059225094 -0.123042285 0.151338 -0.22311208 -0.13501783
8.747369e-05 -0.010847014 0.17138901 -2.4560057e-05 -0.112508945 0.019163756 0.21034133 -0.28204006
0.0070738853 0.2047509 0.05109178 0.16545372 0.0107606845 0.1854775 0.1749576 -0.19395414
-0.059654973 -0.091954604 -0.21931626 -0.08975831 -0.07865162 0.088143386 0.039072145 0.027558213
-0.0017754176 -0.15809852 0.17553125 -0.15728796 -0.08274097 -0.18409379 0.15335372 -0.085692465
0.1609956 0.012259954 -0.059202958 -0.10287522 -0.09076407 -0.15810265 -0.07145965 0.051008195
0.053442664 -0.12534107 -0.11941982 -0.13775907 -0.1558407 -0.12309121 0.19117025 0.114318214
0.0046078623 -0.17098957 0.09481111 0.044647407 -0.27841023 -0.046002127 0.09155218 0.23322766
0.14806482 -0.0042787455 -0.1216641 0.007948101 -0.18678188 -0.14410542 -0.20603119 0.08348189
-0.115012206 -0.2856444 0.048069246 0.14930232 0.030381558 0.16860308 0.16786279 -0.052016217
-0.14497167 -0.057866246 0.149415 -0.050735105 0.057865523 -0.102366365 -0.030198691 0.09435463
-0.06639978 -0.15702023 -0.074145734 -0.22801304 -0.33826 -0.15562049 -0.12972493 0.036755852
0.15106477 0.12584631 0.12334072 -0.13439408 0.22881722 0.28652495 -0.26411337 -0.17858863
0.006796988 0.011680666 -0.1465853 -0.017355623 -0.15623043 0.01880125 -0.030155212 0.20283188

sequential_1/conv2d/BiasAdd/ReadVariableOp f4 [32]
00000000: 5655 e6bb 0687 573d 3139 73bd 21ad 213c
00000010: d0bb 9c3c fd51 a7bc 2497 653d 1795 22be
00000020: a0cd 6dbe 96bc 45bd e592 c2bb d69d a83c
00000030: 5125 b23c d8cc 673d bbfd e9bc 61ff 143c
00000040: 6c57 db3c a964 36bd fceb 1d3d fe63 c4bb
00000050: f73a 82bc 95fa 46bd 4f3a 6c3d da14 1d3d
00000060: 0d1a 893b e0e1 20be 4a9d 183d 4990 55bb
00000070: 0272 5e3d 4e5c 883d 1f62 99bb 652c b33b
-0.007029216 0.052619003 -0.059380714 0.009867937 0.019132525 -0.020424837 0.056052342 -0.15877186
-0.23222971 -0.048275553 -0.0059379213 0.020583075 0.02174631 0.05659184 -0.02856337 0.00909409
0.026775084 -0.04452959 0.03855513 -0.0059933653 -0.015897257 -0.048578817 0.057672795 0.038349964
0.0041840137 -0.15711164 0.037259378 -0.0032587221 0.054307945 0.06658231 -0.0046808864 0.0054679387

sequential_1/conv2d_1/BiasAdd/ReadVariableOp f4 [32]
00000000: 632f e13d 5a10 2dbe c58e 39be 17f0 af3d
00000010: 99b9 4fbc c899 223d 4690 fcbb 5af3 3dbd
00000020: efe9 d23d b236 523e e80a 4f3e 1c80 49be
00000030: 6aad 10be 2be9 04be 87eb 14be b9cb 06bd
00000040: 203a 16be 5fc8 ac3d 35de 0f3d b8aa 513e
00000050: ac46 4639 0283 77be 7205 febd 345d 083d
00000060: 0fb4 6fbc 9850 1c3e 8e4a 54bd 3908 88be
00000070: d1cd 663b 19d9 923d 520a 10be 3bf3 e8bd
0.109953664 -0.16900769 -0.18120869 0.085907154 -0.012678527 0.03969744 -0.0077076284 -0.046374656
0.102985255 0.20528677 0.20219004 -0.19677776 -0.14128652 -0.12979572 -0.14542972 -0.03290913
-0.1467061 0.08436655 0.035124023 0.2047528 0.00018909079 -0.2417107 -0.12403382 0.03329201
-0.014630332 0.15265119 -0.051828913 -0.26568773 0.003521789 0.07170314 -0.14066437 -0.113745175

sequential_1/conv2d_2/BiasAdd/ReadVariableOp f4 [64]
00000000: 9c20 e73d 8f29 38be 1f2d b6be b54f 2bbe
00000010: af28 60be 3765 5ebe 230c d3be 3a7d 873e
00000020: 9b26 b8bd bd85 81bd ce0f bdbe 9a97 7bbe
00000030: 4ea3 d2be 113f 04bf af31 52be 595e 98bd
00000040: 86d6 52be 6f72 3ebe eccc c3be aae8 50be
00000050: b1b6 43be c05e b3be 00a2 2fbe 7aed 3bbe
00000060: 9825 99bd 44d0 1ebe 85ba 86be d39b 81be
00000070: dae4 9dbc ef81 cfbe 5ec3 88be 7d6b 49be
00000080: 6095 14be a149 a7be 7753 94be 4f21 74bd
00000090: 746c f2bb 973f 73be a32a c4bc 88bf 45be
000000a0: 6b3a d4bd 2c43 4ebd 8ac0 67be 11ba a6be
000000b0: 5a21 abbe f5fe 5dbe 636a 95be 38ff 0ebf
000000c0: 7523 8abe 9564 36be c4d6 353a 780d a2be
000000d0: 0bcf c0be 5e97 d6be 2ea5 b0be 109d f0bd
000000e0: d56f 9cbe 04cc 52bd aecc 39bc 3e22 ebbe
000000f0: 2be3 45be 6d1d 58be f5af 17be 491a 59be
0.112855166 -0.17984603 -0.355813 -0.16729625 -0.2189052 -0.21718298 -0.41220197 0.26462728
-0.089917384 -0.06324337 -0.3692612 -0.2456955 -0.41140217 -0.5165873 -0.20526765 -0.074398704
-0.20589647 -0.1859834 -0.3824228 -0.20401254 -0.1911266 -0.35033226 -0.17151642 -0.18352309
-0.074778736 -0.15509135 -0.26314178 -0.25314197 -0.019274164 -0.4052882 -0.26711553 -0.1966991
-0.14510107 -0.32673362 -0.2896993 -0.059602078 -0.0073981825 -0.23754726 -0.023946112 -0.19311345
-0.10362705 -0.05035703 -0.22632042 -0.32563832 -0.33423883 -0.2167929 -0.2918273 -0.5585818
-0.26980177 -0.17811806 0.00069366046 -0.316509 -0.3765796 -0.4191236 -0.34501022 -0.11748707
-0.3055407 -0.051464096 -0.011340303 -0.45924562 -0.19324939 -0.21104975 -0.14813216 -0.21201433

sequential_1/conv2d_3/BiasAdd/ReadVariableOp f4 [64]
00000000: 9409 14be 42e1 85be 5273 3fbe 8c4c 96bd
00000010: 7679 24be 0a5f f3bd 8fe6 fbbd 6dbf acbe
00000020: a4ec 68be efe5 0fbe 4111 a7be 35d4 30be
00000030: 0543 54be 3127 06be 99cf 84be 8000 c5bc
00000040: 4e0b 20be 7997 89bd 71ea 12be 6ba6 50be
00000050: 8a05 14be fde2 36be 7134 4abe 827d c43c
00000060: ef5b edbd 11f3 2abe 543b 04be d7ef bbbe
00000070: 4a1c a1be ba95 1abe ade1 84be 3a66 75bd
00000080: 6c56 a1be 62a6 913d 827d 8dbe e5c7 0fbe
00000090: 9ac8 933c 481f b3be c03b 6ebe 5a88 3abe
000000a0: bb51 d5bd 852a 14be 7646 31be 4eeb c4bd
000000b0: 37c8 dcbd 1311 3abe b70f d93d 5b29 81be
000000c0: 1718 8abc 2c62 a0be bf67 c9be 0a05 f5bd
000000d0: 9232 69bd 84bc 90be ae76 b4bd 13f6 53be
000000e0: 7e54 26be 2158 01be 5a09 e73d e1c2 47be
000000f0: f410 7dbe 26cc 97bd a1fa 00be 5cd1 4cbe
-0.14456779 -0.2614842 -0.18696335 -0.07338819 -0.16061959 -0.11883362 -0.12299835 -0.33739796
-0.22746521 -0.14052556 -0.3263035 -0.1726845 -0.20728691 -0.13100888 -0.25939634 -0.02404809
-0.15629312 -0.06718344 -0.14347245 -0.20375983 -0.14455238 -0.17860027 -0.19746567 0.023985628
-0.115898006 -0.16694285 -0.12913257 -0.3670642 -0.31466895 -0.15096179 -0.25953427 -0.059911944
-0.31511247 0.07111813 -0.27634817 -0.14041097 0.01803999 -0.34984803 -0.2326498 -0.18216076
-0.104159795 -0.14469345 -0.17312035 -0.09615193 -0.107803755 -0.18170576 0.105987005 -0.25226864
-0.01685719 -0.313249 -0.39336964 -0.11963852 -0.056932993 -0.28268826 -0.08811699 -0.20699339
-0.16243169 -0.12631275 0.112810805 -0.19507934 -0.24713498 -0.07411985 -0.12595607 -0.2000174

sequential_1/dense_1/MatMul;sequential_1/dense_1/BiasAdd f4 [10]
00000000: 96b4 8ebe eaf2 ba40 a593 3240 a8df bd3d
00000010: a1d0 f9be 46e4 283f afd3 edbe 64ee c23f
00000020: b2cb e53e 9b6b d03e
-0.2787215 5.8421526 2.7902615 0.09271175 -0.48791984 0.6597332 -0.46450564 1.5229001
0.4488197 0.40707096

sequential_1/batch_normalization_4/batchnorm/mul_1;sequential_1/batch_normalization_4/batchnorm/add_1;sequential_1/dense_1/MatMul;sequential_1/dense_1/BiasAdd i1 [10, 256] scale=0.06699153 zero_point=0
00000000: 0000 0100 ff00 0000 0000 ffff 01ff fa00
00000010: 0000 0154 0000 00ff 0000 ff00 00ff 0000
00000020: fffe 0000 0000 a401 ff01 0000 ffff 011a
00000030: 0000 0100 be01 001a ff00 0100 0100 0000
00000040: 0001 01ff 0000 0001 0001 ffff 00ff 0001
00000050: d800 0000 00ff 0100 0101 0100 00ff 00ff
00000060: ffd0 ff00 0000 01ff ffff 0000 0100 ff00
00000070: 0100 0026 0000 00ff 0000 0000 0000 0000
00000080: 01ff 0000 0000 0001 0118 00ff ffff ffff
00000090: 00ff ff00 00ff ff01 0000 0000 0000 0000
000000a0: ff00 0003 ff00 0000 0001 00ff 0000 0000
000000b0: 0201 0000 ff00 011d 0001 ffff 01ff 0001
000000c0: 0000 d300 0101 0101 0000 00ff 00ff 0100
000000d0: 0101 0000 0000 0000 0101 0100 b800 0100
000000e0: 0000 ffff 0000 0000 0000 0000 0001 0119
000000f0: ff01 00ff 0100 00fa ff00 00ff 0000 0000
0.0 0.0 0.06699153 0.0 -0.06699153 0.0 0.0 0.0
0.0 0.0 -0.06699153 -0.06699153 0.06699153 -0.06699153 -0.40194917 0.0
0.0 0.0 0.06699153 5.6272883 0.0 0.0 0.0 -0.06699153
0.0 0.0 -0.06699153 0.0 0.0 -0.06699153 0.0 0.0
-0.06699153 -0.13398306 0.0 0.0 0.0 0.0 -6.163221 0.06699153
-0.06699153 0.06699153 0.0 0.0 -0.06699153 -0.06699153 0.06699153 1.7417798
0.0 0.0 0.06699153 0.0 -4.421441 0.06699153 0.0 1.7417798
-0.06699153 0.0 0.06699153 0.0 0.06699153 0.0 0.0 0.0
0.0 0.06699153 0.06699153 -0.06699153 0.0 0.0 0.0 0.06699153
0.0 0.06699153 -0.06699153 -0.06699153 0.0 -0.06699153 0.0 0.06699153
-2.6796613 0.0 0.0 0.0 0.0 -0.06699153 0.06699153 0.0
0.06699153 0.06699153 0.06699153 0.0 0.0 -0.06699153 0.0 -0.06699153
-0.06699153 -3.2155933 -0.06699153 0.0 0.0 0.0 0.06699153 -0.06699153
-0.06699153 -0.06699153 0.0 0.0 0.06699153 0.0 -0.06699153 0.0
0.06699153 0.0 0.0 2.5456781 0.0 0.0 0.0 -0.06699153
0.0 0.0 0.0 0.0 0.0 0.0 0.0 0.0
0.06699153 -0.06699153 0.0 0.0 0.0 0.0 0.0 0.06699153
0.06699153 1.6077967 0.0 -0.06699153 -0.06699153 -0.06699153 -0.06699153 -0.06699153
0.0 -0.06699153 -0.06699153 0.0 0.0 -0.06699153 -0.06699153 0.06699153
0.0 0.0 0.0 0.0 0.0 0.0 0.0 0.0
-0.06699153 0.0 0.0 0.20097458 -0.06699153 0.0 0.0 0.0
0.0 0.06699153 0.0 -0.06699153 0.0 0.0 0.0 0.0
0.13398306 0.06699153 0.0 0.0 -0.06699153 0.0 0.06699153 1.9427544
0.0 0.06699153 -0.06699153 -0.06699153 0.06699153 -0.06699153 0.0 0.06699153
0.0 0.0 -3.0146189 0.0 0.06699153 0.06699153 0.06699153 0.06699153
0.0 0.0 0.0 -0.06699153 0.0 -0.06699153 0.06699153 0.0
0.06699153 0.06699153 0.0 0.0 0.0 0.0 0.0 0.0
0.06699153 0.06699153 0.06699153 0.0 -4.82339 0.0 0.06699153 0.0
0.0 0.0 -0.06699153 -0.06699153 0.0 0.0 0.0 0.0
0.0 0.0 0.0 0.0 0.0 0.06699153 0.06699153 1.6747882
-0.06699153 0.06699153 0.0 -0.06699153 0.06699153 0.0 0.0 -0.40194917
-0.06699153 0.0 0.0 -0.06699153 0.0 0.0 0.0 0.0

sequential_1/conv2d_1/Conv2D i1 [32, 3, 3, 32]
00000000: 00f4 f5d1 ec33 fbfa e5ef ea0c 2529 e4a2
00000010: f600 fff1 c720 f203 1025 13fd 2bc9 de2f
00000020: c422 04d5 c922 e3f4 f4d0 e31e 0633 bfbe
00000030: 08f9 e309 e12c ff25 fff7 3bad 12f1 ce40
00000040: 122e 2e2f e237 37fb 27dc 1d13 0ae6 81e8
00000050: 2821 a515 1428 0af8 f5f6 18e1 ebf4 fa4a
00000060: e0f6 e6d6 d528 34ed dfe6 bd1f 321a d1b4
00000070: ec08 c7fc c00d 0922 d6ed d4c6 0ab8 1608
00000080: da25 19f7 bf2d 5810 f3e8 ce24 171b e89e
00000090: 1a25 adf0 d60b 0f15 f709 08d9 e0e5 f6fb
000000a0: 1d1e 2e1c 091e 3d21 f6ec 2009 ecc2 fe29
000000b0: 391d be1a 342f 11da ec28 06fc f7ef f12d
000000c0: eb0b e2ed fe03 4ee8 f7fb ea0b 0728 bf03
000000d0: 1d09 cb0a 0d15 07e9 fcf5 de3a f8ec 69b8
000000e0: f32d fc10 e300 1223 fd04 dffb f619 bce0
000000f0: 2725 e0eb 052f 2dde d6c7 08fc 0f09 21cd
0 -12 -11 -47 -20 51 -5 -6
-27 -17 -22 12 37 41 -28 -94
-10 0 -1 -15 -57 32 -14 3
16 37 19 -3 43 -55 -34 47
-60 34 4 -43 -55 34 -29 -12
-12 -48 -29 30 6 51 -65 -66
8 -7 -29 9 -31 44 -1 37
-1 -9 59 -83 18 -15 -50 64
18 46 46 47 -30 55 55 -5
39 -36 29 19 10 -26 -127 -24
40 33 -91 21 20 40 10 -8
-11 -10 24 -31 -21 -12 -6 74
-32 -10 -26 -42 -43 40 52 -19
-33 -26 -67 31 50 26 -47 -76
-20 8 -57 -4 -64 13 9 34
-42 -19 -44 -58 10 -72 22 8
-38 37 25 -9 -65 45 88 16
-13 -24 -50 36 23 27 -24 -98
26 37 -83 -16 -42 11 15 21
-9 9 8 -39 -32 -27 -10 -5
29 30 46 28 9 30 61 33
-10 -20 32 9 -20 -62 -2 41
57 29 -66 26 52 47 17 -38
-20 40 6 -4 -9 -17 -15 45
-21 11 -30 -19 -2 3 78 -24
-9 -5 -22 11 7 40 -65 3
29 9 -53 10 13 21 7 -23
-4 -11 -34 58 -8 -20 105 -72
-13 45 -4 16 -29 0 18 35
-3 4 -33 -5 -10 25 -68 -32
39 37 -32 -21 5 47 45 -34
-42 -57 8 -4 15 9 33 -51

sequential_1/conv2d_2/Conv2D i1 [64, 3, 3, 32]
00000000: e7a7 da28 eef3 f9f8 daf4 c4e1 e1ff fb02
00000010: fb13 e203 aaee f712 cdf4 1155 aeee f4dc
00000020: bddb 2a3e d925 defc 082f c2e3 b8d9 ec0e
00000030: fcf7 f9e8 92c2 ea2c c8df 01fe e6f7 f9fb
00000040: 9691 f123 c616 ba1c d6d2 cbc8 e7f4 dddc
00000050: f6c3 a2db d2cb 151d c6f1 e4ef bdf5 d5f8
00000060: 14bc cb3b a0cf ebec 0fef 0fc0 e6d0 c7f1
00000070: 1500 d6cf f8c1 b8ef cea7 e9d3 f3f8 e7fa
00000080: e612 445e c1ca e4e3 07fa 12d4 e1f8 a7de
00000090: e7fc 11e8 e30d 20eb 00fe fefe b5f0 0108
000000a0: e903 fa2a a9fe ccfe 02be 15c4 c9f8 b519
000000b0: eae3 d2de e514 bd05 e322 f5e4 ddcc e925
000000c0: e3ac cb3f d9f8 cfde 00e6 e9c4 ad99 81c1
000000d0: 0e1e 90b8 bec3 90ce e117 89c6 bef3 d2e5
000000e0: cef0 c905 ab0a 02e4 3b0b 0ed7 04e3 19f8
000000f0: 11d6 caad def4 98d7 f3ee e0c8 9996 faf5
-25 -89 -38 40 -18 -13 -7 -8
-38 -12 -60 -31 -31 -1 -5 2
-5 19 -30 3 -86 -18 -9 18
-51 -12 17 85 -82 -18 -12 -36
-67 -37 42 62 -39 37 -34 -4
8 47 -62 -29 -72 -39 -20 14
-4 -9 -7 -24 -110 -62 -22 44
-56 -33 1 -2 -26 -9 -7 -5
-106 -111 -15 35 -58 22 -70 28
-42 -46 -53 -56 -25 -12 -35 -36
-10 -61 -94 -37 -46 -53 21 29
-58 -15 -28 -17 -67 -11 -43 -8
20 -68 -53 59 -96 -49 -21 -20
15 -17 15 -64 -26 -48 -57 -15
21 0 -42 -49 -8 -63 -72 -17
-50 -89 -23 -45 -13 -8 -25 -6
-26 18 68 94 -63 -54 -28 -29
7 -6 18 -44 -31 -8 -89 -34
-25 -4 17 -24 -29 13 32 -21
0 -2 -2 -2 -75 -16 1 8
-23 3 -6 42 -87 -2 -52 -2
2 -66 21 -60 -55 -8 -75 25
-22 -29 -46 -34 -27 20 -67 5
-29 34 -11 -28 -35 -52 -23 37
-29 -84 -53 63 -39 -8 -49 -34
0 -26 -23 -60 -83 -103 -127 -63
14 30 -112 -72 -66 -61 -112 -50
-31 23 -119 -58 -66 -13 -46 -27
-50 -16 -55 5 -85 10 2 -28
59 11 14 -41 4 -29 25 -8
17 -42 -54 -83 -34 -12 -104 -41
-13 -18 -32 -56 -103 -106 -6 -11

sequential_1/conv2d_3/Conv2D i1 [64, 3, 3, 64]
00000000: 231e ceee 03af 31f7 c0f9 e8c8 d7bb e4f6
00000010: ff00 d530 e7e7 0019 cbe2 ebb2 2a81 f9fb
00000020: eb0e 1308 e005 62ff 2139 1a1c cef6 f1bc
00000030: fc17 0cf9 cdeb ede8 b905 ecb4 1d0c 1c09
00000040: 075a b219 f3c5 ed14 c80f f4d7 a6e2 0f0a
00000050: c910 1301 e4d3 e2f5 ddf5 d3da f9c9 0bf0
00000060: e707 bb06 0cd6 30cc 240a ebb7 f2dd f9af
00000070: ef01 120b 1df5 e8e7 b104 d5a1 0bc7 162e
00000080: 0630 b815 efc7 f716 dbff f7e4 ace4 1407
00000090: d4dd 08f3 1aed 0c2e d216 129d fad4 e4d7
000000a0: bc2a e427 12e2 2bf3 f7f1 f0d8 080e f6c3
000000b0: cbf0 37f3 dee4 d5eb bbfa 2197 2cf5 ff05
000000c0: f60b e5e5 e0ee 0dd8 e3af ebe4 c1f0 ee01
000000d0: f8ec d2e3 ade8 d820 ddfe e2f1 f1df 16ef
000000e0: d8f8 4d05 eff6 f3e1 3b07 fb07 e4ef e511
000000f0: 13ff 0809 dae6 22f9 f7ed 15f0 07c6 12d1
35 30 -50 -18 3 -81 49 -9
-64 -7 -24 -56 -41 -69 -28 -10
-1 0 -43 48 -25 -25 0 25
-53 -30 -21 -78 42 -127 -7 -5
-21 14 19 8 -32 5 98 -1
33 57 26 28 -50 -10 -15 -68
-4 23 12 -7 -51 -21 -19 -24
-71 5 -20 -76 29 12 28 9
7 90 -78 25 -13 -59 -19 20
-56 15 -12 -41 -90 -30 15 10
-55 16 19 1 -28 -45 -30 -11
-35 -11 -45 -38 -7 -55 11 -16
-25 7 -69 6 12 -42 48 -52
36 10 -21 -73 -14 -35 -7 -81
-17 1 18 11 29 -11 -24 -25
-79 4 -43 -95 11 -57 22 46
6 48 -72 21 -17 -57 -9 22
-37 -1 -9 -28 -84 -28 20 7
-44 -35 8 -13 26 -19 12 46
-46 22 18 -99 -6 -44 -28 -41
-68 42 -28 39 18 -30 43 -13
-9 -15 -16 -40 8 14 -10 -61
-53 -16 55 -13 -34 -28 -43 -21
-69 -6 33 -105 44 -11 -1 5
-10 11 -27 -27 -32 -18 13 -40
-29 -81 -21 -28 -63 -16 -18 1
-8 -20 -46 -29 -83 -24 -40 32
-35 -2 -30 -15 -15 -33 22 -17
-40 -8 77 5 -17 -10 -13 -31
59 7 -5 7 -28 -17 -27 17
19 -1 8 9 -38 -26 34 -7
-9 -19 21 -16 7 -58 18 -47

sequential_1/dense/MatMul i1 [256, 3136] scale=0.0006462388 zero_point=0
00000000: ff02 0200 fcfe 0000 1300 f702 fffe 00fc
00000010: 0600 08ff 0101 ffff 01f8 00ff 08f9 0103
00000020: fe00 fefd f1f0 fdf0 0604 0403 04fe f2ff
00000030: f204 00fc fc03 fe1d 0000 ff01 f705 f4ff
00000040: f904 fef4 05fb f900 ffff 0003 00ff 0003
00000050: 08fc 0400 01fd 0005 0001 06fd 0602 ebfb
00000060: fe08 0002 0400 fff9 02fe 23ff 01fd f602
00000070: 01fe 00fb 01f8 0012 ff03 f101 f8fc f8fe
00000080: edf8 0dfc 0b01 e600 01fb fdff fe03 1d07
00000090: 03fe 02fd fe02 0dfd 0004 f9fc 0500 fafc
000000a0: 02f8 00fb 0c01 fb08 04f5 44eb f8fd e504
000000b0: e3fa 00fe 13ee ff28 fc00 0200 efe7 fffd
000000c0: f302 f6f4 0bfe fc00 fe00 fe04 fffe fe09
000000d0: f401 0600 fe04 0313 fdf4 fe01 fc02 fef7
000000e0: fbf2 fbfe fd00 fef9 fc00 0beb f9fc ef01
000000f0: 0000 f9fb 06e5 fa1d 00fa ff05 ea05 03ff
-0.0006462388 0.0012924776 0.0012924776 0.0 -0.0025849552 -0.0012924776 0.0 0.0
0.012278537 0.0 -0.005816149 0.0012924776 -0.0006462388 -0.0012924776 0.0 -0.0025849552
0.0038774328 0.0 0.0051699104 -0.0006462388 0.0006462388 0.0006462388 -0.0006462388 -0.0006462388
0.0006462388 -0.0051699104 0.0 -0.0006462388 0.0051699104 -0.0045236717 0.0006462388 0.0019387164
-0.0012924776 0.0 -0.0012924776 -0.0019387164 -0.009693582 -0.010339821 -0.0019387164 -0.010339821
0.0038774328 0.0025849552 0.0025849552 0.0019387164 0.0025849552 -0.0012924776 -0.009047343 -0.0006462388
-0.009047343 0.0025849552 0.0 -0.0025849552 -0.0025849552 0.0019387164 -0.0012924776 0.018740926
0.0 0.0 -0.0006462388 0.0006462388 -0.005816149 0.0032311939 -0.0077548656 -0.0006462388
-0.0045236717 0.0025849552 -0.0012924776 -0.0077548656 0.0032311939 -0.0032311939 -0.0045236717 0.0
-0.0006462388 -0.0006462388 0.0 0.0019387164 0.0 -0.0006462388 0.0 0.0019387164
0.0051699104 -0.0025849552 0.0025849552 0.0 0.0006462388 -0.0019387164 0.0 0.0032311939
0.0 0.0006462388 0.0038774328 -0.0019387164 0.0038774328 0.0012924776 -0.013571015 -0.0032311939
-0.0012924776 0.0051699104 0.0 0.0012924776 0.0025849552 0.0 -0.0006462388 -0.0045236717
0.0012924776 -0.0012924776 0.022618357 -0.0006462388 0.0006462388 -0.0019387164 -0.0064623877 0.0012924776
0.0006462388 -0.0012924776 0.0 -0.0032311939 0.0006462388 -0.0051699104 0.0 0.011632298
-0.0006462388 0.0019387164 -0.009693582 0.0006462388 -0.0051699104 -0.0025849552 -0.0051699104 -0.0012924776
-0.012278537 -0.0051699104 0.008401104 -0.0025849552 0.007108627 0.0006462388 -0.016802208 0.0
0.0006462388 -0.0032311939 -0.0019387164 -0.0006462388 -0.0012924776 0.0019387164 0.018740926 0.0045236717
0.0019387164 -0.0012924776 0.0012924776 -0.0019387164 -0.0012924776 0.0012924776 0.008401104 -0.0019387164
0.0 0.0025849552 -0.0045236717 -0.0025849552 0.0032311939 0.0 -0.0038774328 -0.0025849552
0.0012924776 -0.0051699104 0.0 -0.0032311939 0.0077548656 0.0006462388 -0.0032311939 0.0051699104
0.0025849552 -0.007108627 0.04394424 -0.013571015 -0.0051699104 -0.0019387164 -0.017448448 0.0025849552
-0.018740926 -0.0038774328 0.0 -0.0012924776 0.012278537 -0.011632298 -0.0006462388 0.025849551
-0.0025849552 0.0 0.0012924776 0.0 -0.01098606 -0.01615597 -0.0006462388 -0.0019387164
-0.008401104 0.0012924776 -0.0064623877 -0.0077548656 0.007108627 -0.0012924776 -0.0025849552 0.0
-0.0012924776 0.0 -0.0012924776 0.0025849552 -0.0006462388 -0.0012924776 -0.0012924776 0.005816149
-0.0077548656 0.0006462388 0.0038774328 0.0 -0.0012924776 0.0025849552 0.0019387164 0.012278537
-0.0019387164 -0.0077548656 -0.0012924776 0.0006462388 -0.0025849552 0.0012924776 -0.0012924776 -0.005816149
-0.0032311939 -0.009047343 -0.0032311939 -0.0012924776 -0.0019387164 0.0 -0.0012924776 -0.0045236717
-0.0025849552 0.0 0.007108627 -0.013571015 -0.0045236717 -0.0025849552 -0.01098606 0.0006462388
0.0 0.0 -0.0045236717 -0.0032311939 0.0038774328 -0.017448448 -0.0038774328 0.018740926
0.0 -0.0038774328 -0.0006462388 0.0032311939 -0.014217254 0.0032311939 0.0019387164 -0.0006462388
